backend/models/model3.pth (torch, 274771 bytes, 4 tensors)

fc1.weight f4 [128, 512]
0	0xbeebbfcf	-0.46044776
1	0x3e52964c	0.20565146
2	0xbc0cb3ad	-0.00858776
3	0x3e736210	0.23767877
4	0x3e6b45ef	0.22975896
5	0x3d180512	0.03711421
6	0xbd5ce8cf	-0.05393296
7	0xbd0e69fb	-0.03476904
8	0x3e995d99	0.29954222
9	0xbf1a1222	-0.6018392
10	0xbea358c6	-0.31903666
11	0x3f04b357	0.5183615
12	0xbecd692b	-0.401193
13	0xbcd95590	-0.026530057
14	0xbac9a1ed	-0.0015383341
15	0x3ee7f9da	0.4530781
16	0x3f129f25	0.57274085
17	0x3e1a862b	0.15090244
18	0xbd8fc6a7	-0.07020312
19	0x3f16f598	0.58968496
20	0x3f0b7f5a	0.544912
21	0x3dc9cc00	0.09853363
22	0x3ea98247	0.33107206
23	0x3bfca94d	0.007710612
24	0x3d2d6e58	0.04234156
25	0xbe93388d	-0.28754082
26	0x3f37a6e7	0.7173905
27	0xbee396c9	-0.44450977
28	0xbc504f64	-0.012714241
29	0xbecab2db	-0.3958958
30	0x3ca1d750	0.01975599
31	0xbeb79a63	-0.35859975
32	0xbe1a032a	-0.1504027
33	0x3e0f90ec	0.14020127
34	0xbf1747a3	-0.59093684
35	0x3f31caae	0.6944989
36	0xbd554a7d	-0.05207299
37	0x3e2db4bd	0.16963477
38	0xbd5b9c8b	-0.053616088
39	0xbf555c29	-0.8334375
40	0x3f304f34	0.68870854
41	0xbed4c209	-0.41554287
42	0xbe54eef8	-0.20794284
43	0xbd4e14a6	-0.05031266
44	0xbe7795a6	-0.2417818
45	0x3f0fdc0e	0.5619515
46	0x3d9de87d	0.07710359
47	0xbd8c1295	-0.06839482
48	0x3db53d31	0.08849562
49	0xbec60882	-0.38678366
50	0xbdd7f2b3	-0.10544338
51	0xbf1df76b	-0.61705655
52	0x3b301476	0.0026867664
53	0xbe656dba	-0.22405139
54	0x3c1255e2	0.008931609
55	0xbdd5f261	-0.10446621
56	0xbe074e48	-0.13213456
57	0xbf199bba	-0.60003245
58	0xbe6efb24	-0.2333799
59	0xbe117555	-0.14204915
60	0xbbcda047	-0.00627521
61	0xbe8d2472	-0.27566868
62	0xbe157bd5	-0.1459802
63	0x3e614672	0.21999529
64	0xbf16ea45	-0.58951217
65	0xbe93bd36	-0.28855294
66	0xbf10735f	-0.5642604
67	0x3ee1cb30	0.44100332
68	0xbf321e0c	-0.695771
69	0x3e8b487f	0.27203748
70	0x3e883bdc	0.2660817
71	0xbdc5aefe	-0.09652518
72	0xbe53bd87	-0.20677768
73	0xbe8ed574	-0.27897227
74	0x3e809dfb	0.2512053
75	0x3f2c3a86	0.672768
76	0xbdf5118a	-0.11966236
77	0x3e910431	0.2832351
78	0x3f0eb16e	0.55739486
79	0x3f291b59	0.66057354
80	0x3e99b3b5	0.30019918
81	0xbd4dfe16	-0.050291143
82	0xbefe67ec	-0.4968866
83	0x3ee05639	0.43815783
84	0xbe66aca9	-0.22526802
85	0xbe8c37ac	-0.27386224
86	0x3e1303b2	0.14356878
87	0xbf0823e2	-0.5317975
88	0x3d9e509a	0.07730217
89	0xbe18cfda	-0.14923039
90	0xbdb70ef8	-0.08938402
91	0x3cfadfcf	0.030624298
92	0x3ebe8ce2	0.3721686
93	0xbeac193c	-0.33613002
94	0xbf071943	-0.5277292
95	0xbe5e3a2c	-0.21701878
96	0xbe416ccd	-0.1888916
97	0xbf1d21c2	-0.61379635
98	0xbe817404	-0.25283825
99	0xbe90f087	-0.28308508
100	0x3e764dab	0.24053065
101	0xbe95f4f9	-0.29288462
102	0xbd44ac9a	-0.04801617
103	0x3e9ba998	0.30402827
104	0x3e00ad17	0.12566029
105	0x3e5da256	0.21643957
106	0xbe245618	-0.16048467
107	0xbd8c85c1	-0.06861449
108	0xbc4c7b65	-0.012480591
109	0xbee33abd	-0.4438075
110	0x3e840136	0.25782174
111	0xbf6d0563	-0.92586344
112	0x3ca6afa2	0.02034742
113	0x3e2f417d	0.17114826
114	0x3e3cd0af	0.18438981
115	0x3eae408a	0.34033614
116	0xbe537d29	-0.20653214
117	0x3d0ad956	0.033898674
118	0x3e325c70	0.17418075
119	0x3c85524f	0.0162746
120	0xbe6af326	-0.22944316
121	0xbef17b51	-0.47164395
122	0x3eb1c1eb	0.3471826
123	0xbe149078	-0.14508235
124	0x3eff8ed2	0.4991365
125	0xbe5adaab	-0.21372478
126	0xbef45239	-0.4771898
127	0x3e87b892	0.26508003
128	0xbd67d836	-0.05660268
129	0x3d38a44e	0.04507857
130	0xbed20460	-0.41018963
131	0xbe062123	-0.13098578
132	0xbe1a5506	-0.15071496
133	0xbee3af38	-0.4446962
134	0xbe037eb3	-0.128413
135	0x3c49a62c	0.012307685
136	0xbd9edcb0	-0.077569366
137	0x39af1536	0.00033394404
138	0xbebeba4c	-0.37251508
139	0x3eec8561	0.4619551
140	0x3ecd3068	0.40075994
141	0x3bfb043c	0.007660417
142	0x3bb73a0a	0.0055916356
143	0xbf542821	-0.8287373
144	0xbdf55f41	-0.11981059
145	0xbe6bd7e5	-0.23031576
146	0x3da35ba9	0.07976467
147	0x3dbbf826	0.0917819
148	0xbbe640c5	-0.007026764
149	0xbeb92090	-0.36157656
150	0x3e970958	0.29499316
151	0x3ca0efeb	0.019645652
152	0xbea6f05c	-0.32605255
153	0xbb28afe2	-0.00257396
154	0x3e0dc0f1	0.13843133
155	0x3ce684ce	0.028139498
156	0xbe32111f	-0.17389344
157	0xbeca5378	-0.39516807
158	0x3f09b0f8	0.5378566
159	0xbe1b3b66	-0.15159377
160	0x3eb2906d	0.34875813
161	0x3e974b82	0.29549795
162	0xbe04e380	-0.1297741
163	0xbe9e4ad3	-0.3091646
164	0x3e117c8e	0.1420767
165	0x3d19b872	0.037529416
166	0xbec2efa1	-0.38073447
167	0xbf0293b7	-0.51006645
168	0xbec11a50	-0.37715387
169	0x3f28d125	0.6594413
170	0xbcee2a7b	-0.02907299
171	0xbe9984f4	-0.29984248
172	0xbe817769	-0.25286415
173	0x3de65eb7	0.11248534
174	0x3e63720e	0.22211477
175	0x3ecb7106	0.39734668
176	0xbed96323	-0.42458448
177	0x3d4ec7d4	0.05048354
178	0xbe925999	-0.28583983
179	0x3f4e5c8e	0.8060998
180	0xbe8ac2d7	-0.27101776
181	0x3e9764ea	0.2956918
182	0x3e182f11	0.14861704
183	0x3e4b4bad	0.19853087
184	0x3e3da149	0.18518557
185	0xbd7d79be	-0.06188368
186	0x3e37aaa6	0.17936191
187	0xbd867bb2	-0.06566562
188	0x3ee96900	0.4558792
189	0x3e71f301	0.23627855
190	0xbe5ecbec	-0.21757478
191	0xbdf5ffe2	-0.120116964
192	0x3eae3b8c	0.34029806
193	0x3f246b19	0.6422592
194	0x3e2b41ee	0.16724369
195	0x3cbe3973	0.023220753
196	0xbe6eb00d	-0.23309346
197	0xbeb6bd91	-0.35691503
198	0x3d74fcbf	0.05981135
199	0xbd6c4593	-0.05768354
200	0xbf026b4b	-0.50944966
201	0x3ed053af	0.40688846
202	0x3ea3dca8	0.32004285
203	0xbe4d8708	-0.20071042
204	0xbe1d1cee	-0.15343067
205	0x3ea41802	0.32049567
206	0xbf57bd3b	-0.8427312
207	0xbd50531d	-0.050860513
208	0xbf271e2d	-0.6528042
209	0x3e41ca3a	0.189248
210	0xbebb4052	-0.3657251
211	0x3ed0f943	0.40815172
212	0x3e724857	0.23660408
213	0x3eaa20e4	0.3322822
214	0x3d979f6a	0.07403453
215	0x3ee2281c	0.44171226
216	0x3edbb986	0.4291498
217	0x3c515555	0.012776692
218	0x3e376508	0.17909634
219	0xbea11407	-0.31460592
220	0x3e82f7cb	0.25579676
221	0xbe0eb16a	-0.13934866
222	0x3f1ca3fa	0.6118771
223	0xbf0abf4a	-0.54198134
224	0x3edd1472	0.4317966
225	0xbe428c49	-0.18998827
226	0xbe935cb1	-0.28781655
227	0xbe493035	-0.19647296
228	0xbe223c87	-0.15843402
229	0xbe4ad833	-0.19809036
230	0x3f2a7be0	0.6659527
231	0xbdb29cf5	-0.087213434
232	0x3f2007a0	0.62511635
233	0x3d904361	0.070441015
234	0xbe970adf	-0.2950048
235	0xbeb96201	-0.36207584
236	0xbf14e715	-0.58165103
237	0x3dae7493	0.085183285
238	0x3d8eb712	0.06968512
239	0x3e6703ff	0.22560118
240	0xbee1b788	-0.44085336
241	0x3e065feb	0.13122527
242	0x3e5d385d	0.21603532
243	0xbee23edd	-0.44188586
244	0xbe8c1f63	-0.27367696
245	0x3e8d440f	0.27590987
246	0xbee98781	-0.45611194
247	0xbe74aab9	-0.2389325
248	0xbebe0cba	-0.37119085
249	0xbd46520e	-0.048418097
250	0xbe667479	-0.22505368
251	0xbe6a14a7	-0.2285944
252	0x3f3ffb86	0.7499317
253	0xbdc2dea0	-0.095151186
254	0xbec1d50f	-0.37857863
255	0xbe018149	-0.12646975

fc1.bias f4 [128]
0	0xbd211025	-0.039322037
1	0x3e52c08d	0.20581265
2	0x3e2e5122	0.17023137
3	0x3e6a97ac	0.2290942
4	0x3e528a74	0.20560628
5	0x3e802353	0.2502695
6	0x3e4fbf6b	0.20287864
7	0xbd01dac1	-0.03170276
8	0xbd38112c	-0.04493825
9	0x3e7fca8b	0.24979608
10	0xbc8fb188	-0.017540708
11	0x3e889b69	0.2668107
12	0x3d6a9474	0.057270482
13	0x3e244d2e	0.16045067
14	0x3e396a92	0.1810706
15	0x3e1f01dd	0.15528055
16	0x3b26664f	0.002539057
17	0xbd2bd0eb	-0.041947287
18	0x3e98869b	0.29790196
19	0x3e63b591	0.22237231
20	0x3e5bdb13	0.21470289
21	0x3e1ed55b	0.15511076
22	0x3eae311d	0.34021845
23	0x3d6af25f	0.05736005
24	0x3e438a08	0.19095623
25	0xbd2538e7	-0.04033747
26	0x3e17caae	0.1482341
27	0xbd2ace01	-0.041700367
28	0x3e347eaa	0.17626444
29	0xbd294157	-0.04132208
30	0x3d3d2eb6	0.046187125
31	0xbcfbf9a1	-0.03075868
32	0xbb8d840b	-0.0043187193
33	0x3e39b62e	0.18135902
34	0xbd20a4aa	-0.039219536
35	0x3e03ed92	0.12883595
36	0x3e062465	0.13099821
37	0x3dc3e96a	0.095660046
38	0x3e1597f1	0.14608742
39	0xbd1f2959	-0.03885779
40	0x3dbc300d	0.091888525
41	0x3de29484	0.11063483
42	0x3ea3d698	0.3199966
43	0x3e84e8f1	0.2595897
44	0x3e2fc0d7	0.17163406
45	0x3e2d8492	0.16945103
46	0x3e3053f2	0.17219523
47	0xbcb93c12	-0.022611652
48	0x3e406b72	0.18790987
49	0x3e14ce75	0.14531882
50	0x3db5c9ac	0.088763565
51	0xbd48b9b5	-0.04900523
52	0x3e21be78	0.15795314
53	0x3dc47bdc	0.09593937
54	0x3e1809da	0.14847508
55	0xbd41ac9a	-0.047283746
56	0x3e1e550d	0.15462132
57	0x3cce43e6	0.02517886
58	0xbc890756	-0.01672713
59	0x3e0a2497	0.1349052
60	0x3e276946	0.16348752
61	0x3d07a7e4	0.033119097
62	0x3e061d43	0.130971
63	0x3e0dc75f	0.13845585
64	0x3e4bdd56	0.19908652
65	0xbcbaa46f	-0.022783486
66	0x3e86a1a6	0.26295203
67	0xbcaa0b66	-0.020757388
68	0x3ddc56a1	0.10758711
69	0x3e71bb1b	0.23606531
70	0x3e5188fb	0.2046241
71	0x3ddf5d7a	0.10906501
72	0xbd3d061f	-0.046148416
73	0xbc81597a	-0.015789736
74	0x3e0be5c6	0.1366187
75	0x3da3a4d5	0.079904236
76	0x3e16cfa7	0.1472765
77	0x3e93c88c	0.28863943
78	0x3e3acd45	0.18242367
79	0x3e47bd5e	0.19505832
80	0x3e32802c	0.17431706
81	0x3c049e3d	0.008094368
82	0x3d971eb4	0.07378903
83	0xbcbee5cd	-0.023302937
84	0x3d749ac8	0.059717923
85	0x3debc617	0.11512392
86	0xbcb6b3c4	-0.022302516
87	0x3dfdab9a	0.12386246
88	0x3d9d3019	0.076751895
89	0x3d2f074a	0.04273156
90	0xbd0dec77	-0.03464934
91	0x3e820e63	0.254016
92	0x3bc5bd08	0.006034497
93	0x3daf1273	0.08548441
94	0x3e5f5471	0.21809556
95	0xbd25fd7e	-0.040524952
96	0xbd3a8eec	-0.045546457
97	0x3de9c45b	0.11414405
98	0xbd149f77	-0.03628489
99	0x3b8a06e3	0.0042122467
100	0x3e8339ee	0.25630134
101	0xbd20677e	-0.039161198
102	0x3e17d2b7	0.14826475
103	0x3db2c8c4	0.08729699
104	0x3e044f91	0.12920977
105	0x3df34303	0.11878016
106	0x3e3c5297	0.1839088
107	0x3e2d2c05	0.16911323
108	0x3ddcfcdd	0.10790417
109	0x3d56be32	0.052427478
110	0x3e64a349	0.22327913
111	0x3e399b77	0.18125711
112	0x3e6bae5d	0.23015733
113	0x3e64d5b9	0.22347154
114	0x3e79d8a0	0.24399042
115	0x3e117f3f	0.14208697
116	0xbcf97efa	-0.030456055
117	0x3db5c4f8	0.088754594
118	0xbd1c68e1	-0.038185958
119	0x3e18f268	0.1493622
120	0x3d0e6bed	0.034770895
121	0x3e12c219	0.14331855
122	0x3e3d19ac	0.18466824
123	0x3bc34b5e	0.005959912
124	0x3e3d7081	0.18499948
125	0x3e1017c7	0.1407157
126	0xbc5f7bdb	-0.013640369
127	0x3da6aacf	0.08138048

fc2.weight f4 [19, 128]
0	0xbe23adad	-0.15984221
1	0xbe3ec2ac	-0.18628949
2	0xbfd7e404	-1.686646
3	0xbf020a5e	-0.5079707
4	0x3e49a040	0.19690037
5	0x3ed02608	0.40654016
6	0xbf16aceb	-0.588576
7	0x3da410f0	0.08011043
8	0xbd88cc6b	-0.06679615
9	0xbebcf40c	-0.36904943
10	0xbce05da4	-0.027388401
11	0x3ea2190a	0.31659728
12	0x3ef6eca7	0.48227426
13	0x3eab4794	0.33453047
14	0x3ee2b3c7	0.44277784
15	0xbe82d9eb	-0.25556883
16	0xbd0e2d9a	-0.034711458
17	0x3d03e97a	0.032205082
18	0xbeedb444	-0.46426594
19	0x3eeda4e1	0.46414855
20	0xbf1ce842	-0.612919
21	0xbc92db86	-0.017926943
22	0xbea60a12	-0.32429558
23	0xbe8fcd5e	-0.2808637
24	0xbe16c7c0	-0.14724636
25	0x3c84db28	0.016217783
26	0x3eb5a1b6	0.35474938
27	0xbd78a454	-0.06070359
28	0xbf2cabd8	-0.6744971
29	0x3d9ee266	0.07758026
30	0x3f1aaaea	0.60417044
31	0xbd2b0d50	-0.041760743
32	0x3d07ecbb	0.03318475
33	0x3e3cc942	0.18436149
34	0xbd4549ca	-0.048166074
35	0xbf1b59dd	-0.60683995
36	0xbfa4a676	-1.28633
37	0x3d59c172	0.053163
38	0x3ea01412	0.31265312
39	0xbd8f7e5f	-0.07006525
40	0xbfada3c4	-1.3565602
41	0x3f2a6ecb	0.66575307
42	0xbf152251	-0.5825549
43	0xbed9f55a	-0.4257
44	0xbf7833b0	-0.9695387
45	0xbf4e03b5	-0.80474406
46	0xbea9625f	-0.33082864
47	0x3d1754b6	0.03694602
48	0xbf2bb44d	-0.6707199
49	0xbcd29d68	-0.025709823
50	0x3e375c43	0.17906289
51	0xbbd2d510	-0.0064340904
52	0x3ef76c86	0.48324984
53	0x3ed0b13a	0.40760213
54	0x3e7ca0b0	0.24670672
55	0x3d3d1387	0.0461612
56	0xbf137cf9	-0.5761257
57	0xbedd791f	-0.4325647
58	0x3bdc2fea	0.006719579
59	0xbe32f41a	-0.1747593
60	0x3e3c115c	0.18365997
61	0xbeb38706	-0.35063952
62	0xbf500a84	-0.81266046
63	0xbf2d805d	-0.6777399
64	0xbfba376f	-1.4548167
65	0x3d630831	0.055427734
66	0x3dc8b7ba	0.09800668
67	0xbe4acfb6	-0.19805798
68	0xbef99c04	-0.48751843
69	0x3eb2ddef	0.34934947
70	0xbfec825f	-1.8477286
71	0xbf4e3d52	-0.8056232
72	0xbd80fd8b	-0.062983595
73	0xbf7acee2	-0.9797193
74	0xbfe9ce1c	-1.8266025
75	0x3ecbc23a	0.3979662
76	0xbfd34e73	-1.6508316
77	0xbf2098fc	-0.62733436
78	0x3e748ecb	0.23882596
79	0x3e57b7dd	0.21066232
80	0x3edb8029	0.42871216
81	0xbe6669d2	-0.22501305
82	0x3f0e3910	0.5555582
83	0x3d50eff7	0.0510101
84	0x3f5def90	0.8669367
85	0x3f17a29c	0.592325
86	0xbdc2c568	-0.095103085
87	0x3c18b626	0.009320771
88	0x3f0b6ae9	0.54460007
89	0x3f123ad2	0.57121
90	0x3cf8c079	0.030365216
91	0x3ec17da6	0.37791175
92	0x3c5a22f4	0.013313998
93	0xbf727689	-0.9471212
94	0x3d74ea1c	0.059793577
95	0xbc9bf55d	-0.019037897
96	0x3e1acb29	0.15116562
97	0xbeadce6d	-0.33946553
98	0x3f35cc69	0.7101503
99	0x3d8dd38b	0.06925114
100	0xbef67489	-0.48135784
101	0xbd4d5532	-0.050130077
102	0x3eaa036a	0.3320573
103	0xbeecb9de	-0.46235555
104	0x3e9c8511	0.30570272
105	0x3e97cff0	0.2965083
106	0xbf28c97f	-0.6593246
107	0xbf09ba3f	-0.53799814
108	0x3f1b55e1	0.60677916
109	0x3ec2fd13	0.38083705
110	0xbdd2aa1a	-0.102863505
111	0xbe932985	-0.28742614
112	0xbe9beab5	-0.30452505
113	0x3e9a2bee	0.3011164
114	0x3f30987d	0.6898268
115	0xbf135851	-0.57556635
116	0xbd2be429	-0.041965637
117	0xbf5acb97	-0.85466903
118	0x3d604213	0.054750513
119	0x3e5c31f8	0.21503437
120	0xbdde6a23	-0.10860088
121	0xbfcb1451	-1.5865575
122	0xbcf5c0d9	-0.029999183
123	0x3ec27497	0.37979576
124	0x3e80ba25	0.25142017
125	0xbec2ffb2	-0.38085705
126	0x3d173578	0.036916226
127	0xbe7f2a46	-0.2491847
128	0x3f20f9fd	0.6288145
129	0x3e9a575f	0.30144784
130	0xbf34f9f3	-0.7069389
131	0x3d5a851d	0.053349603
132	0x3edb9480	0.42886734
133	0x3ae2f431	0.0017315206
134	0xbed79e58	-0.42112994
135	0xbc89cfa7	-0.01682265
136	0x3d8d2655	0.06892077
137	0x3f034c4e	0.51288307
138	0x3d647962	0.055779822
139	0x3e11533d	0.14191909
140	0x3eed2d20	0.4632349
141	0xbea84f40	-0.32872963
142	0xbf647afc	-0.8925016
143	0xbffe93d3	-1.9888862
144	0xbc619e0e	-0.013770593
145	0x3c8cc3e2	0.017183248
146	0xbd6d7b91	-0.05797917
147	0x3edafe46	0.4277212
148	0x3d99890c	0.07496843
149	0x3ee1566f	0.44011256
150	0x3c748d72	0.014926301
151	0x3f281d1d	0.65669423
152	0x3f880d35	1.062903
153	0x3cedec12	0.029043231
154	0x3d13b4f1	0.03606123
155	0x3c32ec5c	0.01092061
156	0xbf04c045	-0.5185588
157	0x3d666b95	0.056254942
158	0x3e9a8224	0.30177414
159	0xbd541af5	-0.05178352
160	0x3d0c1d65	0.03420772
161	0xbf3985fd	-0.72470075
162	0xbd9fc372	-0.0780095
163	0xbec7e4da	-0.39041787
164	0xbf585a50	-0.84512806
165	0x3e2ff6ed	0.17184038
166	0xbe00bc26	-0.12571773
167	0xbd173c7f	-0.036922928
168	0x3f04dfca	0.51903975
169	0x3ee1c050	0.44092035
170	0xbf66fe70	-0.9023199
171	0xbea55d66	-0.3229782
172	0xbe87f059	-0.26550558
173	0x3f22f522	0.63655293
174	0x3edcd086	0.4312784
175	0xbaf276d5	-0.001849855
176	0xbc91004d	-0.017700339
177	0xbf529576	-0.8225931
178	0x3ecbcfd0	0.39806986
179	0x3d5dbcbf	0.05413508
180	0x3e95cd78	0.29258323
181	0x3e7bacb4	0.245776
182	0xbea6aa92	-0.3255201
183	0x3d9a6c34	0.07540169
184	0xbfd6c541	-1.6778947
185	0xbf9425a6	-1.1573989
186	0x3d87d0ff	0.0663166
187	0x3ea6ae60	0.32554913
188	0xbf20213a	-0.625507
189	0x3f0a473a	0.54014933
190	0xbd0614a8	-0.032734543
191	0xbf7db90a	-0.9911047
192	0x3ec201b0	0.37891912
193	0x3d88470c	0.06654176
194	0x3ee09310	0.438622
195	0xbecbea88	-0.3982737
196	0x3eef3658	0.46721148
197	0xbea85553	-0.32877597
198	0xbed3d0d5	-0.41370264
199	0x3f17c007	0.59277385
200	0x3d66d150	0.05635196
201	0x3edcce77	0.4312627
202	0x3ee21a56	0.44160718
203	0xbf7b4541	-0.9815255
204	0xbed02d5e	-0.40659612
205	0x3e782103	0.24231343
206	0x3f17458c	0.59090495
207	0xbfa3eae0	-1.2806053
208	0x3ea07de3	0.31346044
209	0xbff422fc	-1.9073176
210	0xbfe6e346	-1.8038108
211	0xbd91f3b1	-0.071265586
212	0xbf6e88b2	-0.9317733
213	0xbfa9d26b	-1.326734
214	0x3b9c355c	0.004767103
215	0x3e95d5c3	0.2926465
216	0xbfd99b6c	-1.7000556
217	0x3f15da1a	0.5853592
218	0x3d9b7058	0.07589787
219	0xbdaf69ef	-0.08565127
220	0x3d3ee9bf	0.046609636
221	0x3ed3adfc	0.41343677
222	0x3ea4fc66	0.32223815
223	0x3d9164dd	0.07099316
224	0x3efba854	0.49151862
225	0xbe2edfc4	-0.17077547
226	0xbeaf1b1c	-0.3420037
227	0xbdc47398	-0.0959236
228	0xc030013f	-2.750076
229	0x3c44f74c	0.012021851
230	0xbe9776a3	-0.295827
231	0xbcd079bb	-0.02544867
232	0xbe96f238	-0.29481673
233	0xbf25d7b1	-0.64782244
234	0x3d534b26	0.05158534
235	0x3db7db40	0.089773655
236	0xbe2908ee	-0.16507313
237	0x3e542a65	0.20719297
238	0xbf5a658f	-0.85311216
239	0xbe6b079d	-0.22952123
240	0x3f3ea053	0.74463385
241	0xbf0a00f2	-0.5390769
242	0xbdf45240	-0.119297504
243	0x3eec8820	0.46197605
244	0xb80b6041	-3.3229826e-05
245	0xbf11dfe5	-0.5698226
246	0xbd83d0d4	-0.06436315
247	0x3eb3b0ff	0.35095975
248	0xbf40c44f	-0.75299543
249	0xbf524a1f	-0.8214435
250	0x3ebb49f6	0.36579865
251	0x3edc2b7a	0.4300192
252	0x3f3694dc	0.7132089
253	0xbfe5f033	-1.7963928
254	0xbd801ced	-0.06255517
255	0xbe6528a3	-0.22378783

fc2.bias f4 [19]
0	0x3d73888e	0.0594564
1	0x3dedac26	0.116051
2	0xbd4eaf18	-0.05045995
3	0xbd8e7c72	-0.0695733
4	0x3cffee2d	0.0312415
5	0x3e2daefd	0.16961284
6	0x3d41e5d8	0.047338337
7	0x3df7ae22	0.1209376
8	0x3e58f357	0.21186577
9	0x3e15a838	0.14614952
10	0xbd1141fc	-0.03546332
11	0xbd82340b	-0.06357583
12	0xbb031d7b	-0.0020006585
13	0x3db98b1f	0.09059738
14	0xbd27eba0	-0.040996194
15	0x3cd207bb	0.025638452
16	0x3e24e822	0.16104177
17	0xbdd38256	-0.10327594
18	0x3d46f57d	0.04857396
